model/cnn_weights.pth (torch, 117719 bytes, 6 tensors)

conv1.0.weight f4 [16, 1, 5, 5]
0.12886368 -0.030336514 0.33301422 0.330229 0.2045894 -0.19111419 -0.16512145 -0.48763967
-0.20848815 -0.2513416 -0.048414256 -0.29079828 -0.48439834 -0.3459904 -0.26814753 0.23210938
0.29886168 -0.049713682 0.043016538 0.101538554 0.19241215 0.2954498 0.3892157 0.13097864
0.10957067 -0.022632523 0.07544056 -0.35761288 -0.39102617 -0.30342868 0.0967803 0.08221918
-0.13791372 -0.10874791 -0.100897476 -0.15133102 0.19280587 0.14787813 0.15122774 0.12995729
-0.101047814 0.03805398 0.08573372 0.07700606 0.14202392 0.268684 -0.09404596 0.17341511
0.06015582 0.0967257 -0.11369462 0.022881137 0.079668365 0.18882355 -0.16210724 -0.014555312
-0.12420725 0.054041166 0.06147803 -0.15873885 0.018084738 0.03152548 0.11204753 0.16919015
-0.23307025 -0.10962484 0.03050638 -0.10846189 -0.025870211 0.09240271 0.15206254 0.14214319
0.19871517 -0.08847097 0.22453131 0.2506751 -0.32066444 -0.3533543 0.012179407 0.177205
-0.21932499 -0.3475315 -0.009634422 0.34412366 0.26388422 -0.030236585 -0.13877632 0.21885121
0.046216894 -0.046961095 0.22928567 0.3690757 0.28247312 0.26269805 0.12259443 -0.091566294
0.03539224 -0.18756515 -0.26848772 -0.11279015 0.058919076 0.06984559 -0.4553562 -0.29677537
-0.08683761 -0.034894258 -0.62846607 -0.3560039 -0.14144064 0.27711764 -0.3760216 -0.26517922
-0.22335927 0.16787763 0.07992189 -0.36082238 -0.28502598 -0.04513126 0.26823375 0.20269427
-0.28159437 -0.013852888 0.13882118 0.2251041 0.3391626 -0.3275971 -0.33460534 -0.22584142
0.03819672 0.20922917 -0.059490886 0.07778269 -0.020950459 -0.0967257 0.27486694 0.3967764
0.35753626 -0.16215678 0.0032028141 0.23267843 0.29151168 -0.23995315 -0.32230318 -0.019479156
0.08149799 -0.40518144 -0.21189117 -0.20683736 0.19774716 0.31529975 0.01701319 0.33136898
0.12522233 0.056159325 -0.15244037 0.13672489 0.040244773 0.15528184 0.10859627 -0.24209566
0.04992831 0.27776036 0.15219782 -0.12819056 -0.30970672 0.12218069 0.01666565 0.16460162
-0.11115235 -0.2541815 0.1140113 0.043909844 -0.039827447 -0.19850665 -0.2078498 -0.19327767
-0.28137153 -0.46780327 -0.35349295 0.1444705 -0.38179415 -0.23143189 -0.3524429 -0.20306456
0.22442958 -0.4572007 -0.05742495 -0.15799713 0.0005917711 0.21939836 -0.0339892 -0.19903694
-0.047344133 0.033706654 0.10535277 -0.242156 0.11536145 0.13667126 0.30765656 0.07013306
-0.16561398 -0.28537628 -0.22492273 -0.23342939 -0.30430546 -0.2921977 -0.34819096 -0.39968196
-0.08613667 0.07966797 -0.018373618 -0.13972983 0.20343247 0.21943235 0.27258024 0.09093404
0.32325333 0.056512456 0.06363332 -0.018483572 0.32168937 0.2600851 0.30120748 0.030023612
-0.1439717 0.1183911 0.105792224 0.35381293 0.16024958 -0.11834341 -0.061428677 0.32233933
0.18585993 -0.2297794 -0.35126048 0.26552442 0.21239832 0.07654238 -0.20240214 -0.42742097
0.21412414 0.14843376 -0.11689648 -0.31911573 -0.21770309 0.15785727 -0.090014644 0.06890521
-0.13287209 -0.0094240885 0.014668401 0.12964445 -0.25075442 -0.008276404 -0.08523114 0.12418362
00000000: d7f4 033e 4884 f8bc d780 aa3e c713 a93e
00000010: e27f 513e 70b3 43be 9915 29be e8ab f9be
00000020: eb7d 55be d9af 80be 074e 46bd 83e3 94be
00000030: 0f03 f8be a725 b1be a24a 89be 15ae 6d3e
00000040: 6604 993e 93a0 4bbd 1c32 303d 72f3 cf3d
00000050: b107 453e 3245 973e 4847 c73e 441f 063e
00000060: 9666 e03d d767 b9bc 9580 9a3d 0919 b7be
00000070: 9534 c8be 015b 9bbe c034 c63d 8862 a83d
00000080: 4139 0dbe 39b7 debd 56a3 cebd 85f6 1abe
00000090: e76e 453e 5d6d 173e 72db 1a3e 8613 053e
000000a0: 28f2 cebd 7dde 1b3d 2995 af3d 5ab5 9d3d
000000b0: b86e 113e f390 893e 2b9b c0bd bb93 313e
000000c0: f365 763d 2018 c63d bad8 e8bd 3971 bb3c
000000d0: 2b29 a33d f65a 413e 71ff 25be 6779 6ebc
000000e0: 5f60 febd 455a 5d3d 63d0 7b3d 708c 22be
000000f0: 7226 943c dd20 013d 2d79 e53d 2f40 2d3e
00000100: f8a9 6ebe fd82 e0bd 84e8 f93c 4421 debd
00000110: c4ed d3bc a23d bd3d 48b6 1b3e fc8d 113e
00000120: fd7b 4b3e 4530 b5bd 89eb 653e 7d58 803e
00000130: 212e a4be dbea b4be 238c 473c 3a75 353e
00000140: bb96 60be a6ef b1be b2d9 1dbc fa30 b03e
00000150: d51b 873e b7b2 f7bc 611b 0ebe 881a 603e
00000160: ed4d 3d3d 475a 40bd ddc9 6a3e 7df7 bc3e
00000170: 51a0 903e 5c80 863e ca12 fb3d 1c87 bbbd
00000180: 74f7 103d 1411 40be 3977 89be 86fe e6bd
00000190: 2155 713d 340b 8f3d 7324 e9be f1f2 97be
000001a0: ebd7 b1bd 48ed 0ebd 27e3 20bf 2546 b6be
000001b0: d1d5 10be 5de2 8d3e e785 c0be 92c5 87be
000001c0: 4bb8 64be 1de8 2b3e 16ae a33d b6bd b8be
000001d0: edee 91be 8edb 38bd ef55 893e 168f 4f3e
000001e0: 232d 90be 39f7 62bc 2427 0e3e b081 663e
000001f0: b8a6 ad3e cfba a7be 6451 abbe f942 67be
00000200: 2a74 1c3d 2c40 563e b7ac 73bd 884c 9f3d
00000210: 4ca0 abbc 2018 c6bd 5cbb 8c3e 4726 cb3e
00000220: fe0e b73e 6d0c 26be 4ee6 513b 4143 6e3e
00000230: 0541 953e 47b6 75be ec04 a5be c092 9fbc
00000240: 6be8 a63d f173 cfbe 00fa 58be 2ccd 53be
00000250: 3b7e 4a3e f86e a13e 3f5f 8b3c 32a9 a93e
00000260: 483a 003e 5207 663d 5419 1cbe 9c01 0c3e
00000270: b4d7 243d 3402 1f3e b967 de3d ede7 77be
00000280: a181 4c3d 9b36 8e3e bfd9 1b3e 6344 03be
00000290: e191 9ebe df39 fa3d 6786 883c 548d 283e
000002a0: d8a3 e3bd 1424 82be c27e e93d cfda 333d
000002b0: 1b22 23bd 5445 4bbe 94d6 54be 95ea 45be
000002c0: ee0f 90be e983 efbe 07fd b4be 13f0 133e
000002d0: 867a c3be 7bfc 6cbe 6573 b4be 28f0 4fbe
000002e0: ded0 653e 3616 eabe 6d36 6bbd 00ca 21be
000002f0: 1621 1b3a f7a9 603e 4238 0bbd 57d0 4bbe
00000300: eceb 41bd fd0f 0a3d 31c3 d73d bef7 77be
00000310: a042 ec3d 8df3 0b3e 2985 9d3e eca1 8f3d
00000320: b696 29be d71c 92be 2552 66be 1d08 6fbe
00000330: edcd 9bbe f09a 95be 1646 b2be 1da3 ccbe
00000340: 6c68 b0bd f628 a33d 4584 96bc 5615 0fbe
00000350: 9a50 503e e0b2 603e a38f 8b3e a03b ba3d
00000360: 7681 a53e 9b79 673d 3052 823d dc6a 97bc
00000370: 78b4 a43e e029 853e de37 9a3e 14f4 f53c
00000380: 516d 13be 0877 f23d 98a9 d83d f826 b53e
00000390: 7718 243e 085e f2bd a39c 7bbd a909 a53e
000003a0: 1152 3e3e 4b4b 6bbe 6ad8 b3be d1f2 873e
000003b0: f27e 593e 40c2 9c3d 8242 4fbe ecd6 dabe
000003c0: 5c43 5b3e 05ff 173e 6c67 efbd 2363 a3be
000003d0: 8fed 5ebe 56a5 213e 9959 b8bd 2d1e 8d3d
000003e0: 9f0f 08be 7e67 1abc bc53 703c 84c1 043e
000003f0: e262 80be c199 07bc aa8d aebd fb53 fe3d

conv1.0.bias f4 [16]
0.022777405 0.029448558 -0.17903444 -0.19841932 0.077109806 -0.009384461 -0.0053958483 0.18623438
0.08071535 -0.0035807877 -0.14385372 -0.06457647 -0.03345289 -0.2467683 -0.1208475 -0.07392718
00000000: ae97 ba3c 1a3e f13c ce54 37be 6f2e 4bbe
00000010: bfeb 9d3d 48c1 19bc a8cf b0bb 3ab4 3e3e
00000020: 174e a53d a6ab 6abb 644e 13be ab40 84bd
00000030: e605 09bd d4b0 7cbe e57e f7bd 2267 97bd

conv2.0.weight f4 [32, 16, 5, 5]
0.11443156 -0.0664017 -0.099197455 -0.08493748 0.03258091 0.11040538 0.122325115 0.09445262
0.13711262 0.15735218 -0.13535081 -0.08959022 -0.10269511 -0.10518488 -0.10640586 0.17978516
0.14326406 0.076203756 0.0008569404 -0.10943091 0.24636227 0.23302956 0.2226444 0.23933767
0.12595692 0.10609545 -0.01831002 -0.004996959 0.0041154274 0.14519072 0.049205303 0.02657452
0.08535197 0.12299787 0.097837165 -0.16356385 -0.076286756 -0.092540234 -0.05781213 -0.049812574
-0.09947083 -0.13196018 -0.1917321 -0.23962575 -0.26111153 0.053658262 0.054148354 0.07993428
0.08193699 0.05072759 0.037645444 0.017477978 0.035266064 0.0954551 0.03303714 0.09985256
0.06653559 0.029805163 0.09980821 0.09666566 -0.11092704 -0.086023174 -0.04911318 0.004080371
0.06243446 -0.10216829 -0.10497593 -0.057510532 -0.12693748 -0.034781225 0.050784096 0.05882132
-0.006300836 0.0100849345 -0.03217872 0.10441849 0.052283354 0.11990195 0.06822541 -0.047665022
0.11111331 0.012035271 0.07329725 0.10679142 0.13465741 -0.07103486 -0.026473083 0.099033885
0.12824684 0.16576271 -0.27582514 -0.28524786 -0.1644025 -0.14140058 -0.040074058 0.077647276
-0.03649977 -0.075243 -0.10031355 -0.035234924 -0.010179962 -0.06723089 0.014512179 0.014787543
0.14203024 0.013543939 0.08680319 0.06493766 0.119211316 0.2556102 -0.26194775 -0.14430062
-0.16467786 -0.10602589 -0.09642957 -0.092368975 -0.16847852 -0.1528697 -0.06507625 -0.1623543
0.14575285 0.17355289 0.07739822 0.11847561 0.16455793 -0.0067273034 0.02874746 0.13484126
0.06479047 -0.060809016 0.015437173 0.05676316 0.030571854 0.024599047 0.048262976 -0.060243215
0.0038241614 0.07977533 0.053043604 0.031720452 -0.2164369 -0.24814294 -0.18033133 -0.14359532
-0.14808157 0.15941109 0.051264737 -0.0035730572 -0.10814856 -0.14988603 -0.07285838 -0.0732872
-0.0488922 -0.024277022 0.05095673 0.07508254 0.00019786735 -0.007563233 -0.04432586 0.012420609
0.043515574 0.009233112 -0.047787637 0.0042237844 0.09447095 -0.10933375 -0.21292628 -0.114621416
-0.070259 0.020971594 -0.19740596 -0.24227089 -0.2094859 -0.12837197 -0.1005762 -0.011310883
0.006624745 -0.01878422 -0.014638728 -0.042950485 0.058358993 0.065548934 -0.034150235 0.043270633
0.0844794 -0.12662363 -0.059537377 -0.13144304 -0.09474285 -0.12786359 -0.00028671892 -0.08636051
-0.1578879 -0.08918641 -0.058052167 0.15692312 0.06462164 0.10156496 0.11318457 0.094921194
0.16917047 0.09171606 0.0015271186 -0.0072339927 0.018180985 -0.0073290346 -0.0655676 0.010126124
0.08371365 0.21013439 -0.25057456 -0.21977799 -0.10070025 0.008108094 0.024045141 -0.024734797
-0.04998345 -0.10755902 -0.22824705 -0.16950381 0.19088085 0.19137397 0.18290186 0.1478975
0.10630967 -0.033322774 0.011918013 0.010551029 0.03546855 0.02048535 0.08498544 -0.019687692
-0.054689378 -0.0139599405 0.008536921 0.008331397 -0.048430987 -0.12717117 -0.030677086 0.036593016
-0.107128344 -0.16446967 -0.18935037 -0.09401586 0.025696004 -0.16691968 -0.1403749 -0.20035554
-0.10869228 -0.0054122545 0.085290134 0.0734099 0.029878924 0.107529074 0.12451783 0.041740637
00000000: 185b ea3d 9dfd 87bd 0928 cbbd b4f3 adbd
00000010: 8f73 053d 371c e23d 9785 fa3d 6070 c13d
00000020: 4067 0c3e ee20 213e 6799 0abe 147b b7bd
00000030: d051 d2bd 2c6b d7bd 51eb d9bd 9a19 383e
00000040: d0b3 123e b710 9c3d 4ca4 603a 501d e0bd
00000050: 6446 7c3e 4d9f 6e3e e5fc 633e ef14 753e
00000060: dafa 003e 9248 d93d e5fe 95bc 88bd a3bb
00000070: b5da 863b e0ac 143e 808b 493d cfb2 d93c
00000080: 03cd ae3d 4fe6 fb3d da5e c83d 487d 27be
00000090: 3b3c 9cbd bc85 bdbd 69cc 6cbd 4508 4cbd
000000a0: 5db7 cbbd 9220 07be 6b55 44be 7460 75be
000000b0: 69b0 85be c4c8 5b3d aaca 5d3d 95b4 a33d
000000c0: 95ce a73d bcc7 4f3d 1c32 1a3d fa2d 8f3c
000000d0: 2673 103d f77d c33d f451 073d 807f cc3d
000000e0: d043 883d f529 f43c 3f68 cc3d a5f8 c53d
000000f0: b72d e3bd eb2c b0bd e72a 49bd a2b4 853b
00000100: 47bb 7f3d 9c3d d1bd 9ffd d6bd 2a90 6bbd
00000110: e6fb 01be c276 0ebd fc02 503d a0ee 703d
00000120: 3e77 cebb 483b 253c d5cd 03bd 5cd9 d53d
00000130: 1227 563d 278f f53d c4b9 8b3d 663c 43bd
00000140: 608f e33d 962f 453c de1c 963d 76b5 da3d
00000150: a2e3 093e ba7a 91bd 14de d8bc 47d2 ca3d
00000160: 2453 033e b3bd 293e f438 8dbe 020c 92be
00000170: 2159 28be 50cb 10be b224 24bd 8905 9f3d
00000180: c880 15bd 0119 9abd 3171 cdbd 7f52 10bd
00000190: dbc9 26bc 59b0 89bd 7ec4 6d3c 7347 723c
000001a0: 6070 113e 66e7 5d3c dfc5 b13d 09fe 843d
000001b0: 1025 f43d 57df 823e 041e 86be 8bc3 13be
000001c0: 50a1 28be 1a24 d9bd de7c c5bd f22b bdbd
000001d0: a285 2cbe e089 1cbe b246 85bd 3540 26be
000001e0: 3c40 153e d9b7 313e f582 9e3d 57a3 f23d
000001f0: e081 283e b670 dcbb cb7f eb3c d413 0a3e
00000200: deb0 843d e012 79bd 32ec 7c3c 7d80 683d
00000210: d371 fa3c f183 c93c 66af 453d 97c1 76bd
00000220: c89e 7a3b 4061 a33d 4044 593d 4eed 013d
00000230: a2a1 5dbe 2f19 7ebe c7a8 38be a70a 13be
00000240: b2a2 17be a93c 233e f9fa 513d f429 6abb
00000250: fe7c ddbd b97b 19be c636 95bd 9917 96bd
00000260: 3043 48bd 9be0 c6bc 01b8 503d e0c4 993d
00000270: 9d7a 4f39 ffd4 f7bb 088f 35bd cf7f 4b3c
00000280: 633d 323d 7b46 173c f8bc 43bd ac67 8a3b
00000290: fc79 c13d 60ea dfbd 5909 5abe a2be eabd
000002a0: f3e3 8fbd 9fcc ab3c ca24 4abe dc15 78be
000002b0: 7983 56be f173 03be e5fa cdbd 4851 39bc
000002c0: 6414 d93b 5de1 99bc 47d7 6fbc d9ec 2fbd
000002d0: d709 6f3d 853e 863d 1ee1 0bbd 8c3c 313d
000002e0: 8903 ad3d a0a9 01be 77dd 73bd 0199 06be
000002f0: 8a08 c2bd acee 02be c352 96b9 c7dd b0bd
00000300: 5ead 21be 5da7 b6bd 1cc8 6dbd 74b0 203e
00000310: 5a58 843d 4a01 d03d 50cd e73d 0b66 c23d
00000320: 063b 2d3e a1d5 bb3d 9929 c83a 210b edbb
00000330: 4af0 943c 6628 f0bb 4e48 86bd 0be8 253c
00000340: 1072 ab3d 782d 573e 4f4b 80be 7b0d 61be
00000350: ef3b cebd d0d7 043c 51fa c43c a1a0 cabc
00000360: 72bb 4cbd e747 dcbd 98b9 69be 6892 2dbe
00000370: 4576 433e 8af7 433e a04a 3b3e 7172 173e
00000380: e2b8 d93d 767d 08bd c543 433c 39de 2c3c
00000390: 7847 113d e5d0 a73c d90c ae3d 1548 a1bc
000003a0: f801 60bd 3cb8 64bc 71de 0b3c 6980 083c
000003b0: 925f 46bd 2939 02be 834e fbbc 8fe2 153d
000003c0: 1b66 dbbd bd6a 28be 10e5 41be 638b c0bd
000003d0: 6d80 d23c feec 2abe 70be 0fbe 012a 4dbe
000003e0: 0f9a debd 4859 b1bb 98ac ae3d ee57 963d
000003f0: a5c4 f43c 3438 dc3d 3403 ff3d 3bf8 2a3d

conv2.0.bias f4 [32]
-0.06355698 -0.0048995153 -0.022283088 -0.083234124 -0.017608535 -0.11048446 -0.028842848 -0.054933656
0.01933809 -0.053900376 -0.035109345 -0.02365414 0.016685246 -0.0076464745 -0.02267734 0.024574611
-0.02053928 -0.08572193 0.0064183315 -0.013633899 -0.02561475 -0.06177133 -0.104975104 -0.017794665
-0.10228874 -0.025371393 -0.08629233 0.009102946 -0.07054054 -0.09741601 -0.118889056 -0.068128906
00000000: 292a 82bd 1d8c a0bb 068b b6bc a776 aabd
00000010: c63f 90bc ad45 e2bd d647 ecbc 1d02 61bd
00000020: ea6a 9e3c a4c6 5cbd d1ce 0fbd 54c6 c1bc
00000030: 7faf 883c 478f fabb d4c5 b9bc b250 c93c
00000040: fe41 a8bc fb8e afbd de50 d23b b860 5fbc
00000050: 06d6 d1bc ef03 7dbd 30fd d6bd 1ec6 91bc
00000060: c27c d1bd abd7 cfbc 08ba b0bd 8624 153c
00000070: 8f77 90bd 0c82 c7bd 1b7c f3bd 2b87 8bbd

out.weight f4 [10, 1568]
0.085136764 0.023678636 0.00481564 -0.018492416 -0.041731145 -0.057722647 -0.0025916335 -0.06158773
-0.12240424 -0.14917366 -0.08864018 -0.05047384 -0.15427455 -0.099388175 -0.060403083 -0.172489
-0.10256722 -0.023205474 -0.07914485 -0.08028965 -0.18244886 -0.1736608 -0.2498882 -0.14495303
-0.09090607 -0.024852471 -0.017200505 -0.022282254 -0.07731888 0.030128982 0.042646874 -0.008554811
0.1130029 0.10669993 0.102411866 -0.02105185 0.063625254 0.034885038 0.022581581 0.064639166
0.05079966 0.05644711 -0.009544745 0.02633292 0.02689275 0.00557352 -0.04033805 -0.047592893
-0.025396125 -0.051855486 -0.0063496036 0.02204709 8.3549174e-05 -0.0095018055 -0.044723846 -0.016910521
-0.052586712 0.0051237424 -0.0396939 0.015295959 0.07766475 0.066902734 0.009988077 -0.07916338
-0.01527618 -0.08713391 -0.061444107 0.10279796 0.12568218 0.03274047 -0.088511266 0.044128045
0.031319957 -0.1240384 0.05894213 0.01059953 0.008290828 -0.015440841 0.052073862 0.057131838
-0.07219358 -0.07444871 -0.07141085 -0.010871588 0.10808333 0.09531793 0.17306505 -0.0128607815
-0.2885215 -0.1542285 -0.0533332 -0.015659014 -0.00017616767 -0.087710336 -0.20006865 -0.29206052
-0.21314773 -0.10608403 0.002191084 -0.07005318 -0.06266931 -0.12828007 0.00060706266 0.012969886
0.051749002 0.009249159 0.04036906 0.07291145 0.030416323 -0.0012169098 -0.072832696 0.018177513
0.023705551 -0.027500387 -0.1451252 -0.06145665 -0.025952814 -0.2075318 -0.09670368 0.026059207
-0.044508237 0.0203724 0.1619288 -0.025394637 -0.10070655 -0.15663703 0.09992123 0.019613096
0.04120634 -0.08850892 -0.014964934 0.10501667 0.08577758 -0.00785126 0.0067304564 0.092904165
0.05731797 0.034908097 0.06330143 0.07078753 0.116159506 0.051395472 0.05986247 -0.022652311
0.0194446 0.023077017 0.028515952 -0.0067775915 -0.009072517 -0.01758864 -0.0051734718 -0.034916025
0.011647997 0.049532067 -0.008691293 -0.017453218 0.036341153 -0.056655526 -0.0045607686 -0.12567836
-0.09261491 0.0022365004 0.032655835 0.06712168 -0.016563743 -0.12355789 -0.18231173 -0.080910295
0.07579419 0.02581657 0.052725717 -0.0339713 0.05160555 -0.058518156 -0.124921806 0.058647558
0.03849757 0.06482553 0.018715274 -0.037881583 0.0366858 0.063253306 0.037464254 -0.0002637774
-0.026557773 -0.18600227 -0.05516955 -0.070667274 -0.024015712 0.0680931 0.0052854787 -0.19228238
-0.39063996 -0.17410801 -0.0530987 -0.02275211 -0.01743735 -0.02094244 -0.01276734 -0.019611696
-0.04021661 -0.06421508 -0.005176806 -0.063978635 -0.016643027 0.005095296 0.01341921 0.032196984
-0.014727606 -0.022667842 -0.0034806402 0.04389036 0.0836956 0.13309774 0.033165853 -0.03489034
-0.108410046 0.016344624 -0.0042586606 0.04814014 -0.07249257 -0.124917105 -0.106463015 -0.1264338
-0.041342057 -0.10999911 -0.12473786 -0.0029256593 0.06841579 -0.10865714 -0.25835913 -0.07558065
-0.17343 -0.111731395 0.0017214776 -0.009697734 0.00025917287 0.027861316 -0.0785247 -0.25461704
-0.40065327 -0.06292152 0.24656895 0.11919778 0.048747826 -0.02160147 -0.07349535 0.008218605
-0.008491642 -0.024825677 0.007291799 -0.032890685 -0.12446773 -0.032650642 0.018574696 -0.025611913
00000000: 2f5c ae3d b3f9 c13c 84cc 9d3b 687d 97bc
00000010: 47ee 2abd 956e 6cbd 65d8 29bb 6a43 7cbd
00000020: 13af fabd fbc0 18be fc88 b5bd a8bd 4ebd
00000030: 26fa 1dbe 078c cbbd 3969 77bd f5a0 30be
00000040: c30e d2bd 6819 bebc b216 a2bd e66e a4bd
00000050: e0d3 3abe 23d4 31be b1e2 7fbe 916e 14be
00000060: f62c babd 6997 cbbc 13e8 8cbc 4689 b6bc
00000070: 5c59 9ebd 0ed1 f63c 7dae 2e3d 7a29 0cbc
00000080: 106e e73d 7e85 da3d 50bd d13d ee74 acbc
00000090: f54d 823d 9de3 0e3d 02fd b83c 8a61 843d
000000a0: 4e13 503d 1635 673d 9061 1cbc 23b8 d73c
000000b0: 2f4e dc3c 13a2 b63b 8339 25bd c4f0 42bd
000000c0: 890b d0bc 6b66 54bd 5610 d0bb 199c b43c
000000d0: 1f37 af38 76ad 1bbc 5a30 37bd ef87 8abc
000000e0: 2a65 57bd 11e5 a73b 1296 22bd e79b 7a3c
000000f0: b20e 9f3d 4d04 893d 08a5 233c 6920 a2bd
00000100: f148 7abc 4373 b2bd d1ac 7bbd bd87 d23d
00000110: d4b2 003e df1a 063d 6545 b5bd 9cbf 343d
00000120: 5b49 003d d807 febd 4e6d 713d a7a9 2d3c
00000130: 41d6 073c 95fb 7cbc 674b 553d 1303 6a3d
00000140: 3ada 93bd 9178 98bd da3f 92bd bf1e 32bc
00000150: cb5a dd3d 0c36 c33d f737 313e 07b6 52bc
00000160: 17b9 93be 13ee 1dbe ea73 5abd 5547 80bc
00000170: a6b9 38b9 7aa1 b3bd ccde 4cbe f588 95be
00000180: 6643 5abe 9542 d9bd 4a98 0f3b 0b78 8fbd
00000190: c458 80bd da5b 03be 4923 1f3a a57f 543c
000001a0: c3f6 533d c989 173c 075a 253d 9952 953d
000001b0: a72b f93c b880 9fba 4f29 95bd 02e9 943c
000001c0: 2532 c23c 7e48 e1bc b39b 14be f8b9 7bbd
000001d0: ff9a d4bc 3783 54be 940c c6bd 1e7a d53c
000001e0: 454e 36bd 05e4 a63c aad0 253e 6a08 d0bc
000001f0: 3c3f cebd 7565 20be 80a3 cc3d a5ab a03c
00000200: fbc7 283d 2a44 b5bd 7c2f 75bc fb12 d73d
00000210: 28ac af3d 92a2 00bc 298b dc3b 8a44 be3d
00000220: 3fc6 6a3d cbfb 0e3d 2ea4 813d 0df9 903d
00000230: 09e5 ed3d 0f84 523d 5932 753d 5791 b9bc
00000240: 484a 9f3c 030c bd3c 499a e93c 8f16 debb
00000250: e5a4 14bc 0d16 90bc 3a86 a9bb 1b04 0fbd
00000260: 3ed7 3e3c 23e2 4a3d ed65 0ebc 0dfa 8ebc
00000270: 76da 143d a00f 68bd 8072 95bb d4b1 00be
00000280: e3ac bdbd 4092 123b 20c2 053d 1777 893d
00000290: b0b0 87bc eb0b fdbd edaf 3abe 4cb4 a5bd
000002a0: fc39 9b3d 457d d33c ecf6 573d 7d25 0bbd
000002b0: 5760 533d bcb0 6fbd 01d7 ffbd 6c38 703d
000002c0: a1af 1d3d 3fc3 843d c650 993c b829 1bbd
000002d0: d943 163d f38a 813d 1e74 193d 9a4b 8ab9
000002e0: b08f d9bc 6177 3ebe 77f9 61bd 01ba 90bd
000002f0: 99bc c4bc 6574 8b3d cf31 ad3b ace5 44be
00000300: f601 c8be 5f49 32be 067e 59bd a262 babc
00000310: c6d8 8ebc 7b8f abbc 1b2e 51bc b5a8 a0bc
00000320: 2cba 24bd 3283 83bd 32a2 a9bb 3b07 83bd
00000330: f556 88bc 71f6 a63b 3fdc 5b3c fce0 033d
00000340: 0f4c 71bc e9b1 b9bc 741b 64bb 61c6 333d
00000350: 9968 ab3d c64a 083e ebd8 073d 2ce9 0ebd
00000360: 1606 debd 29e5 853c 3c8c 8bbb 982e 453d
00000370: fc76 94bd 8ad4 ffbd 4809 dabd dd77 01be
00000380: 4a56 29bd 3747 e1bd 9076 ffbd 6bbc 3fbb
00000390: 941d 8c3d a287 debd a647 84be 07ca 9abd
000003a0: a297 31be 6ed3 e4bd 34a3 e13a 3fe3 1ebc
000003b0: 98e1 8739 6a3d e43c 8fd1 a0bd 2a5d 82be
000003c0: 6d22 cdbe ffdc 80bd 927c 7c3e f71d f43d
000003d0: cdab 473d 91f5 b0bc bb84 96bd 54a7 063c
000003e0: 8720 0bbc 385f cbbc 0bf0 ee3b 62b8 06bd
000003f0: f0e8 febd aebc 05bd f629 983c 13d0 d1bc

out.bias f4 [10]
0.034527335 0.04373864 0.01615508 0.002792728 -0.037071038 -0.0031887807 -0.0462765 0.015520674
-0.00070881884 -0.021433681
00000000: 896c 0d3d 4a27 333d a957 843c 3306 373b
00000010: cdd7 17bd ddfa 50bb 6d8c 3dbd 6d4a 7e3c
00000020: 07d0 39ba b095 afbc
